…
|  No running processes found                                                             |
+-----------------------------------------------------------------------------------------+
开始运行训练脚本...
[32m2025-11-06 09:36:11.587[0m | [1mINFO    [0m | [36mmain_simplified.py[0m:[36m352[0m | [1mScheduled epochs: 610[0m
[32m2025-11-06 09:36:14.282[0m | [1mINFO    [0m | [36mmain_simplified.py[0m:[36m441[0m | [1m=== Starting Task 0 ===[0m
./output_tinyimagenet/train/20251106-093609-SNN-tinyimagenet-0-gwu-xin-epochs
SNN(
  (encoder): Encoder()
  (feature): Sequential(
    (0): BaseConvModule(
      (conv): Conv2d(3, 512, kernel_size=(3, 3), stride=(1, 1), padding=(1, 1), bias=False)
      (bn): BatchNorm2d(512, eps=1e-05, momentum=0.1, affine=True, track_running_stats=True)
      (node): LIFNode(
        (act_fun): QGateGrad()
      )
      (activation): Identity()
    )
    (1): BaseConvModule(
      (conv): Conv2d(512, 512, kernel_size=(3, 3), stride=(1, 1), padding=(1, 1), bias=False)
      (bn): BatchNorm2d(512, eps=1e-05, momentum=0.1, affine=True, track_running_stats=True)
      (node): LIFNode(
        (act_fun): QGateGrad()
      )
      (activation): Identity()
    )
    (2): AvgPool2d(kernel_size=2, stride=2, padding=0)
    (3): BaseConvModule(
      (conv): Conv2d(512, 512, kernel_size=(3, 3), stride=(1, 1), padding=(1, 1), bias=False)
      (bn): BatchNorm2d(512, eps=1e-05, momentum=0.1, affine=True, track_running_stats=True)
      (node): LIFNode(
        (act_fun): QGateGrad()
      )
      (activation): Identity()
    )
    (4): BaseConvModule(
      (conv): Conv2d(512, 512, kernel_size=(3, 3), stride=(1, 1), padding=(1, 1), bias=False)
      (bn): BatchNorm2d(512, eps=1e-05, momentum=0.1, affine=True, track_running_stats=True)
      (node): LIFNode(
        (act_fun): QGateGrad()
      )
      (activation): Identity()
    )
    (5): AvgPool2d(kernel_size=2, stride=2, padding=0)
    (6): BaseConvModule(
      (conv): Conv2d(512, 512, kernel_size=(3, 3), stride=(1, 1), padding=(1, 1), bias=False)
      (bn): BatchNorm2d(512, eps=1e-05, momentum=0.1, affine=True, track_running_stats=True)
      (node): LIFNode(
        (act_fun): QGateGrad()
      )
      (activation): Identity()
    )
    (7): BaseConvModule(
      (conv): Conv2d(512, 512, kernel_size=(3, 3), stride=(1, 1), padding=(1, 1), bias=False)
      (bn): BatchNorm2d(512, eps=1e-05, momentum=0.1, affine=True, track_running_stats=True)
      (node): LIFNode(
        (act_fun): QGateGrad()
      )
      (activation): Identity()
    )
    (8): AvgPool2d(kernel_size=2, stride=2, padding=0)
    (9): BaseConvModule(
      (conv): Conv2d(512, 1024, kernel_size=(3, 3), stride=(1, 1), padding=(1, 1), bias=False)
      (bn): BatchNorm2d(1024, eps=1e-05, momentum=0.1, affine=True, track_running_stats=True)
      (node): LIFNode(
        (act_fun): QGateGrad()
      )
      (activation): Identity()
    )
    (10): BaseConvModule(
      (conv): Conv2d(1024, 1024, kernel_size=(3, 3), stride=(1, 1), padding=(1, 1), bias=False)
      (bn): BatchNorm2d(1024, eps=1e-05, momentum=0.1, affine=True, track_running_stats=True)
      (node): LIFNode(
        (act_fun): QGateGrad()
      )
      (activation): Identity()
    )
    (11): AvgPool2d(kernel_size=2, stride=2, padding=0)
    (12): BaseConvModule(
      (conv): Conv2d(1024, 2048, kernel_size=(3, 3), stride=(1, 1), padding=(1, 1), bias=False)
      (bn): BatchNorm2d(2048, eps=1e-05, momentum=0.1, affine=True, track_running_stats=True)
      (node): LIFNode(
        (act_fun): QGateGrad()
      )
      (activation): Identity()
    )
    (13): BaseConvModule(
      (conv): Conv2d(2048, 2048, kernel_size=(3, 3), stride=(1, 1), padding=(1, 1), bias=False)
      (bn): BatchNorm2d(2048, eps=1e-05, momentum=0.1, affine=True, track_running_stats=True)
      (node): LIFNode(
        (act_fun): QGateGrad()
      )
      (activation): Identity()
    )
  )
  (fc): Sequential(
    (0): Flatten(start_dim=1, end_dim=-1)
    (1): BaseLinearModule(
      (fc): Linear(in_features=32768, out_features=2048, bias=True)
      (node): LIFNode(
        (act_fun): QGateGrad()
      )
    )
  )
  (dec): ModuleDict(
    (0): Linear(in_features=2048, out_features=5, bias=True)
    (1): Linear(in_features=2048, out_features=5, bias=True)
    (2): Linear(in_features=2048, out_features=5, bias=True)
    (3): Linear(in_features=2048, out_features=5, bias=True)
    (4): Linear(in_features=2048, out_features=5, bias=True)
    (5): Linear(in_features=2048, out_features=5, bias=True)
    (6): Linear(in_features=2048, out_features=5, bias=True)
    (7): Linear(in_features=2048, out_features=5, bias=True)
    (8): Linear(in_features=2048, out_features=5, bias=True)
    (9): Linear(in_features=2048, out_features=5, bias=True)
    (10): Linear(in_features=2048, out_features=5, bias=True)
    (11): Linear(in_features=2048, out_features=5, bias=True)
    (12): Linear(in_features=2048, out_features=5, bias=True)
    (13): Linear(in_features=2048, out_features=5, bias=True)
    (14): Linear(in_features=2048, out_features=5, bias=True)
    (15): Linear(in_features=2048, out_features=5, bias=True)
    (16): Linear(in_features=2048, out_features=5, bias=True)
    (17): Linear(in_features=2048, out_features=5, bias=True)
    (18): Linear(in_features=2048, out_features=5, bias=True)
    (19): Linear(in_features=2048, out_features=5, bias=True)
    (20): Linear(in_features=2048, out_features=5, bias=True)
    (21): Linear(in_features=2048, out_features=5, bias=True)
    (22): Linear(in_features=2048, out_features=5, bias=True)
    (23): Linear(in_features=2048, out_features=5, bias=True)
    (24): Linear(in_features=2048, out_features=5, bias=True)
    (25): Linear(in_features=2048, out_features=5, bias=True)
    (26): Linear(in_features=2048, out_features=5, bias=True)
    (27): Linear(in_features=2048, out_features=5, bias=True)
    (28): Linear(in_features=2048, out_features=5, bias=True)
    (29): Linear(in_features=2048, out_features=5, bias=True)
    (30): Linear(in_features=2048, out_features=5, bias=True)
    (31): Linear(in_features=2048, out_features=5, bias=True)
    (32): Linear(in_features=2048, out_features=5, bias=True)
    (33): Linear(in_features=2048, out_features=5, bias=True)
    (34): Linear(in_features=2048, out_features=5, bias=True)
    (35): Linear(in_features=2048, out_features=5, bias=True)
    (36): Linear(in_features=2048, out_features=5, bias=True)
    (37): Linear(in_features=2048, out_features=5, bias=True)
    (38): Linear(in_features=2048, out_features=5, bias=True)
    (39): Linear(in_features=2048, out_features=5, bias=True)
  )
)
Files already downloaded and verified.
Files already downloaded and verified.
Task: 0
0 torch.Size([512, 3, 3, 3])
5 torch.Size([512, 512, 3, 3])
10 torch.Size([512, 512, 3, 3])
15 torch.Size([512, 512, 3, 3])
20 torch.Size([512, 512, 3, 3])
25 torch.Size([512, 512, 3, 3])
30 torch.Size([1024, 512, 3, 3])
35 torch.Size([1024, 1024, 3, 3])
40 torch.Size([2048, 1024, 3, 3])
…
